gnn_encoder.onnx (onnx, 76321 bytes, 28 tensors)

conv1.nn.0.weight f4 [32, 128]
0	0x3d929e7e	0.07159136
1	0xbd0cda1a	-0.034387685
2	0xbd7e1baa	-0.0620381
3	0xbd96855c	-0.07349655
4	0x3d8a13c4	0.06742051
5	0xbd928d00	-0.071558
6	0xbdccedea	-0.10006316
7	0x3da0e8a1	0.078568704
8	0xbda3302a	-0.07968171
9	0xbd8d7d3b	-0.069086514
10	0x3cfaea0a	0.030629177
11	0x3d8b065d	0.06788323
12	0xbd94d74a	-0.07267626
13	0x3ca3399a	0.019924928
14	0x3d45c044	0.048279062
15	0xbd7344ef	-0.059391912
16	0x3d5f5767	0.054526713
17	0x3cda7039	0.02666484
18	0x3d7105af	0.05884331
19	0x3d46ab51	0.048503224
20	0x3c814d8a	0.015784044
21	0x3ad17acd	0.0015982032
22	0xbd9418d8	-0.07231301
23	0xbdbb90f5	-0.09158508
24	0x3db78f4c	0.089628786
25	0xbda6f732	-0.081526175
26	0x3c180114	0.009277601
27	0xbc7acece	-0.015308095
28	0x3bd29360	0.00642626
29	0x3d6d3020	0.057907224
30	0x3d229c1e	0.039699666
31	0xbd927200	-0.0715065
32	0x3bc07cc7	0.0058742496
33	0xbd869d0f	-0.06572925
34	0xbd132cf2	-0.035931535
35	0xbd68505b	-0.056717258
36	0xbd689ae1	-0.05678833
37	0x3dd80f5a	0.10549803
38	0x3d9b3da9	0.0758012
39	0xbd842f76	-0.06454365
40	0xbd5f3fb9	-0.05450413
41	0x3d1c4d95	0.038159925
42	0x3cd6527e	0.026162382
43	0x3d7ba8cc	0.061440274
44	0xbd35a556	-0.04434713
45	0x3d3a508b	0.045486968
46	0x3c86fd92	0.016478334
47	0x3c9c168d	0.019053722
48	0x3c09cc65	0.008410548
49	0x3bcf6bd9	0.006329995
50	0x3c3031d7	0.01075407
51	0x3d27f2f5	0.041003186
52	0xbd83f2ac	-0.0644277
53	0xbd3ce147	-0.04611328
54	0x3da7529b	0.081700526
55	0x3d488689	0.048956428
56	0xbd1b7908	-0.03795722
57	0x3dceb1f7	0.10092538
58	0xbc742944	-0.014902417
59	0x3c8212d2	0.015878115
60	0xbd45d82e	-0.04830187
61	0xbd2c77a9	-0.042106304
62	0xbca57773	-0.02019856
63	0xbc18fbde	-0.009337394
64	0xbd823e69	-0.0635956
65	0x3d1dbf69	0.03851262
66	0xbdb27b8e	-0.087149724
67	0x3dc43cf0	0.095819354
68	0xbd5dbff3	-0.054138135
69	0xbd95db7f	-0.07317256
70	0x3c041ef7	0.008064023
71	0x3d35f7bf	0.044425722
72	0x3d9dbea2	0.07702376
73	0x3cd06e46	0.025443207
74	0x3c34d5d6	0.011037311
75	0x3da862a2	0.08221938
76	0x3c990c8f	0.018682746
77	0xbd3f4b96	-0.046702944
78	0xbcfd2e7f	-0.03090596
79	0xbd6da412	-0.058017798
80	0xbbc763f2	-0.0060849125
81	0x3c559df8	0.013038151
82	0xbddabebb	-0.1068091
83	0x3db5c543	0.08875515
84	0x3d260709	0.040534053
85	0x3ac43b2a	0.0014971246
86	0xbdb3425f	-0.08752894
87	0xbd74b302	-0.059741028
88	0x3beef32d	0.0072921724
89	0xbd970bd1	-0.07375301
90	0x3cc776e8	0.024348691
91	0x3c9498c3	0.018139249
92	0xbdbd7d1e	-0.0925238
93	0xbd6d869e	-0.05798971
94	0x3c850017	0.016235394
95	0xbd87b94b	-0.06627139
96	0x3ad987b9	0.0016596235
97	0x3d5b9d0e	0.053616576
98	0xbd5792b8	-0.052630156
99	0xbd8f2a9d	-0.0699055
100	0x3c3e5fd0	0.011619523
101	0xbc0ac5f2	-0.008470045
102	0xbd8b5e11	-0.06805051
103	0xbd8edde9	-0.0697592
104	0xbb1c3f11	-0.0023841301
105	0xbd4d0a86	-0.050058864
106	0xbd929877	-0.071579866
107	0xbd34e512	-0.04416377
108	0x3d2860e8	0.041108042
109	0xbc4671c4	-0.012112085
110	0xbcff7c53	-0.031187212
111	0xbdacaf10	-0.08431828
112	0x3ba1a03e	0.0049324324
113	0x3d0086a5	0.031378407
114	0xbd9396df	-0.07206511
115	0x3ca63e91	0.020293506
116	0x3cf12d11	0.029440435
117	0xbdb4e20c	-0.088321775
118	0x3d74dfb0	0.059783638
119	0xbd1397fe	-0.036033623
120	0x3c565635	0.013082077
121	0xbd3d6681	-0.046240333
122	0xbc8572ff	-0.016290186
123	0xbbb791cf	-0.0056020985
124	0xbbe1436f	-0.006874494
125	0xbdac1443	-0.08402302
126	0x3d4d40ba	0.050110556
127	0xbd53d33a	-0.051715113
128	0xbcbc468b	-0.022982856
129	0x3ce81df7	0.0283346
130	0xbc160f40	-0.009158909
131	0x3cad25bc	0.021136157
132	0x3ddf47f3	0.10902395
133	0x3d3c1523	0.045918595
134	0x3dc907c5	0.09815935
135	0xbaf19e22	-0.0018433968
136	0xbd373dfe	-0.044736855
137	0xbcc8245e	-0.024431404
138	0x3db895a5	0.090129174
139	0x3d825173	0.063631915
140	0xbd4e9c98	-0.05044231
141	0xbc9d2393	-0.019182002
142	0x3dd94f84	0.106108695
143	0x3d195c87	0.037441757
144	0x3d9dc90a	0.07704361
145	0x3be6f533	0.007048273
146	0x3d76c33e	0.06024479
147	0x3d2e0989	0.042489562
148	0x3d47af18	0.048750967
149	0x3c990bda	0.01868241
150	0xbda1fd1c	-0.07909605
151	0x3d604a0b	0.054758113
152	0x3d9553c9	0.072913714
153	0x3cacbe63	0.021086877
154	0x3d3975a1	0.045278195
155	0x3cdfee28	0.027335241
156	0xbd49c332	-0.04925842
157	0x3d19df15	0.037566263
158	0xbcc56f42	-0.024100903
159	0x3db18aee	0.08669077
160	0xbccbafad	-0.024864042
161	0x3d909d81	0.070612915
162	0xbd249671	-0.040182535
163	0xbd8989ab	-0.06715711
164	0x3df11fa5	0.11773614
165	0x3ddc0554	0.10743204
166	0x3e12526f	0.14289258
167	0xbbe5d03c	-0.007013349
168	0x3b98b4c4	0.004660221
169	0xbb830178	-0.003997978
170	0xbde1c38c	-0.11023626
171	0x3d063d00	0.032773018
172	0xbdab35e9	-0.08359892
173	0xbc1bb210	-0.009502903
174	0x3ce8b994	0.028408803
175	0xbe07a6ad	-0.13247176
176	0x3c824438	0.01590167
177	0x3d684d9d	0.056714643
178	0x3d3c961e	0.0460416
179	0x3afddfe8	0.0019369097
180	0x3d967c89	0.07347972
181	0x3d6bee83	0.05760051
182	0x3bb0c650	0.0053947344
183	0x3d64b6e9	0.0558385
184	0x3d224a7e	0.039621823
185	0x3c89f61c	0.016840987
186	0x3d9b7f96	0.075926945
187	0xbd420744	-0.04737021
188	0xbdd30107	-0.1030293
189	0x3dc315e8	0.09525663
190	0xbdbb7367	-0.091528706
191	0xbbe247c6	-0.0069055287
192	0x3d99a004	0.07501224
193	0xbd713975	-0.058892686
194	0x3c628bc1	0.013827265
195	0x3d845389	0.064612456
196	0xbd2c5d76	-0.04208132
197	0xbda2f364	-0.07956579
198	0xbd5ba42d	-0.053623367
199	0x3cc3318f	0.023827342
200	0x3dce8173	0.10083284
201	0x3da4b5ec	0.08042511
202	0xbd658dba	-0.056043364
203	0xbd9e98d2	-0.07743992
204	0xbd5ba44c	-0.053623483
205	0x3b3f9de3	0.0029238395
206	0xbc0f8912	-0.008760707
207	0x3bfd2c21	0.007726208
208	0x3d203b4c	0.03911905
209	0xbddd5f1f	-0.108091585
210	0x3d930147	0.07177978
211	0xbd15f9cc	-0.036615178
212	0xbbb694b9	-0.0055719283
213	0x3d4383ce	0.04773312
214	0x3d584762	0.05280245
215	0xbd53faad	-0.051752735
216	0xbd96b414	-0.07358566
217	0x3dc505c6	0.09620242
218	0x3c396acd	0.011316967
219	0x3d445e40	0.047941446
220	0x3dd4d18e	0.10391532
221	0x3d8fc90a	0.07020767
222	0xbd628d71	-0.05531067
223	0xbd7c5475	-0.061603982
224	0xbd88d0a2	-0.066804186
225	0xbce276ba	-0.027644504
226	0x3d57e53c	0.05270885
227	0x3da89270	0.08231056
228	0xbc0a1a7d	-0.008429167
229	0xbd1de0bc	-0.0385444
230	0xbd3ba97f	-0.04581594
231	0xbcb3a2ac	-0.021928154
232	0x3d4240f8	0.04742524
233	0x3d9333d4	0.0718762
234	0x3d16c2fb	0.03680704
235	0x3d1d0a1b	0.038339715
236	0x3d539036	0.051651202
237	0x3d618592	0.055059023
238	0x3cbc21a0	0.022965252
239	0x3d5fb791	0.054618422
240	0xbca73713	-0.020412004
241	0xbd2ef43d	-0.042713393
242	0xbd12d5ab	-0.0358483
243	0xbda5e366	-0.081000134
244	0xbc20d7de	-0.009817092
245	0xbd30eab4	-0.04319258
246	0x3c5d7f3e	0.013519106
247	0x3db2f73c	0.087385625
248	0x3c8e58e2	0.017376367
249	0x3cc8b898	0.024502084
250	0xbc218937	-0.009859375
251	0xbcaa9be1	-0.020826282
252	0x3c6a5db4	0.014304567
253	0xbb7cd44f	-0.0038578694
254	0xba83b57e	-0.0010048596
255	0xbd01e588	-0.03171304

conv1.nn.0.bias f4 [32]
0	0x3c81bc04	0.015836723
1	0x3cf8e613	0.030383145
2	0xbd982153	-0.07428231
3	0x3d7baca0	0.061443925
4	0x3d64c001	0.05584717
5	0xbd90ce86	-0.07070641
6	0xbd799649	-0.06093434
7	0x3b653905	0.0034976613
8	0xbbf278b5	-0.0073996433
9	0xbdbadea3	-0.09124496
10	0x3cf88a2f	0.030339329
11	0xbdbee191	-0.09320367
12	0x3dba568e	0.0909854
13	0x3d64d05a	0.055862762
14	0x3d5fcf23	0.0546409
15	0x3d53a7bb	0.051673632
16	0xbd701004	-0.058609024
17	0xbcad7748	-0.021175042
18	0x3d070dcc	0.032972142
19	0x3c89021b	0.016724637
20	0x3d2daac0	0.042399168
21	0x3ceb2c02	0.028707508
22	0xbdd3234f	-0.10309469
23	0xbd632cd5	-0.055462677
24	0x3db39044	0.08767751
25	0x3d4abd1d	0.04949676
26	0x3c76333e	0.0150268655
27	0x3d379a07	0.044824626
28	0x3c6b8e55	0.014377196
29	0xbd90b399	-0.070655055
30	0xbd8a3955	-0.067492165
31	0xbd36080a	-0.04444126

conv1.nn.2.weight f4 [32, 32]
0	0xbde36d2b	-0.111048065
1	0xbb49f77c	-0.0030817678
2	0x3c18b23e	0.00931984
3	0xbd749da0	-0.059720635
4	0x3b86f1c7	0.0041181776
5	0xbe12c805	-0.14334114
6	0xbdd2ac9c	-0.10286829
7	0x3e17622d	0.14783545
8	0x3dc1b29b	0.094578944
9	0xbd21fdd0	-0.039548695
10	0x3cba8d9a	0.022772599
11	0x3dcffbbf	0.10155439
12	0x3e254e35	0.16143115
13	0xbc1af9f2	-0.009459006
14	0xbe02c1a9	-0.12769188
15	0xbdbfff4c	-0.09374866
16	0x3db9cc73	0.09072199
17	0xbdbe7a55	-0.09300677
18	0x3d57c010	0.0526734
19	0xbdd8dc7d	-0.1058893
20	0x3d85ba8d	0.06529722
21	0x3e14070b	0.14455812
22	0xbce09f9a	-0.027419854
23	0x3e4c0846	0.19925031
24	0x3d597e7a	0.053099133
25	0xbd7f12c1	-0.062273744
26	0xbdc72283	-0.097233795
27	0xbd3cc0fe	-0.04608249
28	0xbdf4df24	-0.11956623
29	0xbd4ebb16	-0.050471388
30	0xbe189db8	-0.14903915
31	0x3ce0f092	0.027458463
32	0xbcbd8181	-0.023133041
33	0xbde9c1b5	-0.114139
34	0xbda2e6e2	-0.07954194
35	0x3d90b896	0.07066457
36	0xbdde7ac1	-0.10863257
37	0x3d518ee6	0.05116167
38	0xbe1a2c28	-0.15055907
39	0x3caa5a3a	0.020794977
40	0xbd406144	-0.04696776
41	0xbe0a945b	-0.13533156
42	0xbd26f30d	-0.040759135
43	0xbd51a480	-0.05118227
44	0x3d2871cb	0.041124146
45	0x3d35fdf3	0.044431638
46	0xbd4c270d	-0.04984193
47	0xbd053210	-0.032518446
48	0x3de8fb75	0.113760866
49	0x3dfd8906	0.12379651
50	0xbdc5345f	-0.096291296
51	0x3d730959	0.059335086
52	0x3dd9403f	0.10607957
53	0x3cd081ed	0.025452578
54	0x3c89aa91	0.016804965
55	0xbd00b47b	-0.03142212
56	0x3d1da420	0.0384866
57	0xbe27a13f	-0.16370104
58	0xbd7e1472	-0.062031217
59	0xbe001f7d	-0.12512012
60	0x3d193f67	0.03741398
61	0x3da0e02f	0.078552596
62	0xbdaecc4b	-0.085350595
63	0xbe30600f	-0.17224143
64	0x3c802008	0.015640274
65	0x3d21fd5f	0.039548274
66	0xbe1ea7d4	-0.15493709
67	0xbbeeac10	-0.007283695
68	0xbdb34d3d	-0.087549664
69	0xbe0c0b87	-0.13676272
70	0x3e315b90	0.17320085
71	0xbdddfae6	-0.10838871
72	0xbdaf2f4a	-0.085539415
73	0x3e348290	0.1762793
74	0xbe0918f1	-0.1338842
75	0xbd95b8d8	-0.07310647
76	0xbdf11297	-0.11771124
77	0xbdcfcf66	-0.1014698
78	0x3c354098	0.011062764
79	0x3d8a1aa8	0.067433655
80	0x3d6ade1c	0.057340726
81	0xbdcf9d9d	-0.10137484
82	0x3d6d837c	0.05798672
83	0xbdf5dd2b	-0.12005075
84	0x3e152c5d	0.14567704
85	0xbe05eaf4	-0.13077909
86	0x3dace8fa	0.08442874
87	0xbe17ca25	-0.14823206
88	0xbda21d0b	-0.07915696
89	0xbe369db6	-0.178336
90	0x3c981b1b	0.018567612
91	0x3d9df454	0.077126175
92	0xbe07ae8d	-0.1325018
93	0x3cea5a58	0.028607532
94	0xbd941459	-0.072304435
95	0x3d6b86d1	0.057501618
96	0xbe3bf68c	-0.18355769
97	0xbe0f0547	-0.13966857
98	0xbd9d1c10	-0.07671368
99	0x3da9819b	0.082766734
100	0xbe2ffe02	-0.1718674
101	0xbdf65772	-0.120283976
102	0xbe26ef6e	-0.16302273
103	0x3b3b5c9d	0.0028589137
104	0xbe0b53c4	-0.13606173
105	0xbdee4f86	-0.11636262
106	0xbdb944cb	-0.09046324
107	0xbd7ce34d	-0.06174021
108	0x3be6ef4d	0.00704757
109	0xbc3998be	-0.0113279205
110	0xbd39f70d	-0.04540162
111	0x3de7e4e4	0.11322954
112	0xbc1dbdde	-0.009627787
113	0x3dcc9ba5	0.09990624
114	0x3d358486	0.044315837
115	0x3e0d9d76	0.13829598
116	0x3ddb7980	0.10716534
117	0x3cbaa23e	0.022782441
118	0x3e0f8395	0.14015038
119	0xbdb8773b	-0.090071164
120	0xbcc35030	-0.023841947
121	0xbba1050b	-0.0049139312
122	0xbcef0c6c	-0.029180728
123	0xbd9a2d22	-0.0752814
124	0x3debf018	0.115204036
125	0xbe27569e	-0.16341636
126	0x3e3eb5c7	0.1862403
127	0x3c708c12	0.014681833
128	0xbce2a3d2	-0.027666006
129	0x3e15dcdf	0.14635037
130	0xbd692405	-0.056919117
131	0xbe2dd16a	-0.16974416
132	0xbdf83076	-0.12118618
133	0x3e061149	0.13092531
134	0xbdff31ac	-0.12460646
135	0x3d62b10f	0.055344637
136	0xbda6caf7	-0.08144181
137	0x3db77be2	0.08959176
138	0xbdb372eb	-0.08762153
139	0x3e0e47ea	0.1389462
140	0x3e33c5f1	0.17555977
141	0x3cc1f895	0.023678103
142	0xbdf7752d	-0.120828964
143	0x3c598744	0.013276879
144	0xbdb296bc	-0.087201566
145	0xbe1b4fc8	-0.15167153
146	0xbd6abe95	-0.05731066
147	0xbc017c28	-0.007903136
148	0x3d3bf521	0.04588807
149	0x3c5e7667	0.013578034
150	0x3cc67b7a	0.0242288
151	0xbcde0e30	-0.027106375
152	0xbe40856e	-0.188009
153	0xbd87daf8	-0.06633562
154	0x3cc7b8a7	0.024380041
155	0x3e0bd7f2	0.13656595
156	0xbe24d6df	-0.16097592
157	0xbda3e28c	-0.08002195
158	0xbd9a1257	-0.07523029
159	0xbd6869fe	-0.056741707
160	0xbdb497c2	-0.08818008
161	0x3e2dbbd3	0.1696618
162	0xbe2c6cec	-0.16838425
163	0xbdfe1aa4	-0.12407425
164	0xbbe8dda1	-0.0071064983
165	0x3ccd953a	0.02509557
166	0x3e016d41	0.12639333
167	0x3d37382f	0.044731315
168	0x3e01dfe4	0.12683064
169	0x3d195e9a	0.037443735
170	0xbe302806	-0.17202768
171	0x3d27c549	0.04095963
172	0x3d6370f3	0.05552764
173	0xbce63de2	-0.02810568
174	0x3d325491	0.04353768
175	0xbdf453aa	-0.1193002
176	0x3e146add	0.1449389
177	0xbe0ec0b6	-0.13940701
178	0x3e28d3a5	0.16486986
179	0x3e1a2cd9	0.1505617
180	0x3e02f821	0.12789966
181	0xbcfbf912	-0.030758414
182	0xbe22e71e	-0.15908477
183	0x3df19ef5	0.11797897
184	0xbe2ddd48	-0.16978943
185	0xbe3be9b9	-0.18350877
186	0xbd0ef9c8	-0.03490618
187	0xbe005c24	-0.12535149
188	0x3d25259e	0.040319078
189	0x3e07fcf3	0.13280086
190	0x3b153b6a	0.002277101
191	0xbd918004	-0.07104495
192	0xbda1f9e5	-0.07908992
193	0x3d263444	0.040577188
194	0x3d12277b	0.035682183
195	0x3e0934fa	0.13399115
196	0xbe411775	-0.18856604
197	0x3cb065d9	0.02153294
198	0xbdd4c51a	-0.10389157
199	0x3dba66cd	0.09101639
200	0xbce5049e	-0.027956303
201	0x3e12c2bc	0.14332098
202	0xbc92e199	-0.017929839
203	0xbe154307	-0.1457635
204	0xbcf42f0a	-0.029807586
205	0x3e292076	0.16516289
206	0xbe056b80	-0.13029289
207	0x3cae16e6	0.021251153
208	0xbdabbcde	-0.08385633
209	0xbd659b81	-0.056056503
210	0x3df1415f	0.11780047
211	0xbdb22303	-0.08698084
212	0xbdcc2efc	-0.09969899
213	0x3e1646e9	0.14675488
214	0xbe04186f	-0.12899946
215	0xbd3035a0	-0.04301989
216	0x3e47d550	0.19514966
217	0x3bb344c3	0.0054708435
218	0x3dcfc479	0.10144896
219	0x3dda3381	0.10654355
220	0xbc280eb0	-0.010257408
221	0xbce5ee99	-0.028067874
222	0xbd320401	-0.04346085
223	0x3d285ee1	0.04110611
224	0x3d01a79b	0.03165398
225	0x3e535938	0.20639503
226	0xbc5059be	-0.012716709
227	0xbe23cb69	-0.15995564
228	0x3e13acd2	0.14421394
229	0x3d4daeb5	0.05021544
230	0x3d214963	0.039376628
231	0x3cb4581a	0.022014666
232	0x3e091605	0.13387306
233	0xbdff8793	-0.124770306
234	0xbdc9b3a4	-0.09848717
235	0xbdee39dc	-0.116321295
236	0xbca407f8	-0.020023331
237	0xbe31d573	-0.1736658
238	0x3e0ed272	0.13947466
239	0xbe1d89d6	-0.15384611
240	0xbbcdef06	-0.0062845973
241	0xbdfeb6f0	-0.12437236
242	0x3d72ec52	0.059307404
243	0x3bcd4be1	0.006265149
244	0x3cfb38c2	0.030666713
245	0x3dd4928b	0.10379513
246	0x3ddfda83	0.1093035
247	0x3e21ffe2	0.15820268
248	0xbdad9e5e	-0.08477472
249	0xbdbb53ea	-0.09146865
250	0x3e132d9c	0.14372867
251	0x3dc6b66c	0.09702763
252	0x3d80417b	0.062624894
253	0xbdd23e7b	-0.102658235
254	0xbde91126	-0.11380224
255	0x3dd4640b	0.10370644

conv1.nn.2.bias f4 [32]
0	0xb82bf132	-4.0994208e-05
1	0x384d774f	4.8986924e-05
2	0xb845f14e	-4.7193193e-05
3	0xb7c7cb4e	-2.381732e-05
4	0x38099c79	3.2809072e-05
5	0x3841dc21	4.6219797e-05
6	0xb7698698	-1.391922e-05
7	0xb933a528	-0.00017132296
8	0x38cb338f	9.689398e-05
9	0x3b999cbe	0.0046878746
10	0xb7ac9aeb	-2.0576137e-05
11	0xb81ac75e	-3.6902136e-05
12	0x3b062b87	0.0020472722
13	0x3a11682e	0.0005546835
14	0xb88c91ed	-6.702901e-05
15	0x358c07bd	1.0433065e-06
16	0x3b103e74	0.0022009881
17	0x38882129	6.491162e-05
18	0xbb1543be	-0.0022775973
19	0x3653732c	3.150849e-06
20	0xb69cc8bc	-4.672531e-06
21	0x351d5666	5.8612784e-07
22	0x3810f600	3.456138e-05
23	0xb8054bed	-3.1780382e-05
24	0xb6ae776b	-5.199506e-06
25	0xba33d8ff	-0.0006860643
26	0xb94a5108	-0.00019294408
27	0xb73493cc	-1.0763248e-05
28	0xbbafcc3f	-0.005364924
29	0x37f541e8	2.9236966e-05
30	0xb723f64a	-9.772901e-06
31	0xbb5b03fd	-0.0033419125

conv2.nn.0.weight f4 [32, 32]
0	0xbd276a50	-0.040872872
1	0x3e18a8ca	0.14908138
2	0x3e113e9c	0.1418404
3	0x3cce58c8	0.025188819
4	0x3def66a8	0.11689502
5	0x3d67b935	0.05657311
6	0xbe114c03	-0.14189152
7	0x3dba8f32	0.091093436
8	0x3d7d586b	0.0618519
9	0x3cc5ba82	0.024136785
10	0xbddb30eb	-0.1070269
11	0xbe340b15	-0.17582352
12	0x3e1d3996	0.15353999
13	0xbe3ae618	-0.18251836
14	0xbe2dbb75	-0.1696604
15	0x3e1c61fd	0.15271755
16	0x3d33bc4e	0.043880753
17	0xbe0c7143	-0.13715081
18	0x3de51954	0.111864716
19	0xbc8b5240	-0.017006993
20	0xbcffd162	-0.031227771
21	0xbdf06946	-0.11738829
22	0x3e09155d	0.13387056
23	0xbe1ad231	-0.15119244
24	0x3d65190b	0.055932086
25	0xbe02cd97	-0.12773739
26	0x3e1cbad7	0.15305649
27	0xbe40a430	-0.18812633
28	0x3d8d65ba	0.069041684
29	0x3dc964a0	0.09833646
30	0xbe60fe96	-0.21972117
31	0xbaa59135	-0.0012631776
32	0xbd9aec03	-0.07564547
33	0xbe08c5d0	-0.1335671
34	0xbbfffc24	-0.00781204
35	0x3d3799b7	0.04482433
36	0xbcc0d58c	-0.023539327
37	0xbda3fcfe	-0.08007239
38	0xbca8eac1	-0.020619752
39	0x3e2a64dc	0.16640037
40	0x3d3fe996	0.046853624
41	0x3e426b4a	0.1898624
42	0x3d3360f7	0.043793645
43	0x3e1035cc	0.14083022
44	0x3d7816e3	0.0605687
45	0xbdf7a67c	-0.12092301
46	0x3d8aeab5	0.06783048
47	0xbc3a007b	-0.011352654
48	0xbe0f26eb	-0.1397969
49	0x3d98a9d9	0.07454271
50	0x3d2681c6	0.040651105
51	0xbe127b24	-0.14304787
52	0xbe29c893	-0.16580419
53	0xbd9402aa	-0.07227071
54	0x3e34e756	0.17666373
55	0x3e54d69e	0.20784995
56	0xbe42c86d	-0.19021769
57	0xbdc0e678	-0.094189584
58	0x3d03d6b9	0.032187197
59	0xbdd7dbb8	-0.10539955
60	0xbdd2b12b	-0.10287698
61	0x3d0aef16	0.033919416
62	0xbe217ed0	-0.15771031
63	0xbe1cd6bf	-0.15316294
64	0xbde76bef	-0.112998836
65	0x3e01889e	0.12649772
66	0xbd94b917	-0.072618656
67	0xbcda02ac	-0.026612602
68	0xbe06dd91	-0.13170458
69	0xbe183d8d	-0.1486723
70	0xbdcfe979	-0.10151953
71	0xbe2ab535	-0.16670687
72	0xbdedd50b	-0.116129
73	0xbd45a1a6	-0.048249863
74	0x3d643507	0.055714633
75	0x3d81d0c8	0.0633865
76	0x3dee3549	0.11631257
77	0xbc98b4e5	-0.018640945
78	0x3e4d5fbd	0.20056053
79	0x3dbef60b	0.09324273
80	0x3de7089e	0.112809405
81	0x3d902ce4	0.07039812
82	0x3e007739	0.1254548
83	0xbe120678	-0.1426028
84	0x3dde1ff4	0.10845938
85	0xbd4b5d68	-0.049649626
86	0xbd26eb9c	-0.04075204
87	0x3cb013e9	0.021493869
88	0x3de9daf5	0.11418716
89	0xbd0e2bf5	-0.03470989
90	0xbe19f2b6	-0.15033993
91	0x3d3fc39b	0.046817403
92	0xbc9706c3	-0.018435841
93	0xbd8a82f0	-0.067632556
94	0xbe105ced	-0.14097948
95	0xbe3852f6	-0.18000397
96	0x3e212d71	0.15739991
97	0xbd3ab089	-0.045578513
98	0xbc6588e7	-0.014009691
99	0x3e36f4d4	0.17866832
100	0xbdae5041	-0.08511401
101	0xbe019b50	-0.12656903
102	0xbdf363c8	-0.11884266
103	0xbdb27501	-0.08713723
104	0x3d9c87e6	0.07643108
105	0x3de7a9ab	0.113116585
106	0xbe10e588	-0.14150059
107	0xbd2fd9e8	-0.04293242
108	0x3da9aa53	0.0828444
109	0x3e05cbc1	0.13066007
110	0xbd9b929e	-0.075963244
111	0xbe1fdb3c	-0.15610975
112	0xbacdff66	-0.0015716373
113	0xbde3545f	-0.11100077
114	0x3d4d6199	0.050141905
115	0xbddc684d	-0.10762081
116	0xbda7981d	-0.0818331
117	0x3e0ccfbd	0.13751121
118	0x3d273eba	0.040831305
119	0xbc7edfd8	-0.015556298
120	0x3b3b4333	0.002857399
121	0x3d6fee6b	0.058576982
122	0xbd37f153	-0.04490788
123	0xbd3cc13c	-0.04608272
124	0xbd4a9f71	-0.04946846
125	0xbdd2966e	-0.102825984
126	0x3db17a30	0.086658835
127	0x3c86108d	0.016365314
128	0x3ddf7835	0.109115995
129	0x3e2497cc	0.16073531
130	0x3e11abcf	0.14225696
131	0xbc961dfe	-0.018324848
132	0x3d8720df	0.065980665
133	0x3da3f744	0.080061466
134	0x3cdc05d4	0.026858248
135	0x3da4ebac	0.08052763
136	0x3e00e67b	0.12587921
137	0x3e2fed37	0.17180334
138	0xbe103d04	-0.14085776
139	0xbe6ccf2b	-0.23125903
140	0x3e29854c	0.16554755
141	0xbd41b7c3	-0.04729439
142	0xbe405eca	-0.18786159
143	0x3cf62620	0.030047476
144	0x3deda45c	0.11603615
145	0xbd30468f	-0.04303604
146	0xbdcb6478	-0.09931272
147	0xbe268028	-0.16259825
148	0xbe04f627	-0.12984525
149	0x3da4e3c6	0.08051257
150	0x3cc39d15	0.023878613
151	0xbc456628	-0.012048282
152	0xbc1b4f8e	-0.0094794165
153	0xbd3490e6	-0.0440835
154	0x3bfb2b24	0.007665055
155	0xbdd0ef34	-0.102018744
156	0xbdaeed15	-0.085413136
157	0x3dd82620	0.10554147
158	0xbdee2bfa	-0.116294816
159	0xbd08770a	-0.03331665
160	0xbc865146	-0.016396176
161	0xbd3f52e3	-0.046709906
162	0xbd619a49	-0.05507878
163	0x3e2c9c79	0.16856565
164	0xbe10225b	-0.14075606
165	0x3e1ef886	0.15524492
166	0x3d1f4547	0.038884427
167	0x3d9553bf	0.07291364
168	0xbe19c9b6	-0.15018353
169	0x3dfaa1c9	0.12237889
170	0x3c822834	0.015888311
171	0x3b6d9e3f	0.0036257652
172	0xbdbb1755	-0.091353096
173	0xbdb36d05	-0.08761028
174	0x3df2f6ed	0.118635036
175	0x3dc84548	0.09778839
176	0xbddb84d1	-0.10718692
177	0x3e23aa8e	0.1598303
178	0x3db6b499	0.08921165
179	0xbe0b4195	-0.13599236
180	0xbdead23e	-0.11465882
181	0xbc88c446	-0.016695153
182	0xbe0c600e	-0.13708517
183	0xbc532624	-0.012887511
184	0x3e0a39a4	0.1349855
185	0xbe228c46	-0.15873823
186	0xbe00a7ed	-0.12564059
187	0xbd4fc887	-0.050728347
188	0x3e069f9c	0.13146824
189	0x3e02cd2a	0.12773576
190	0x3d964997	0.07338255
191	0xbd86b2ca	-0.0657707
192	0xbe2cd676	-0.16878685
193	0xbdc2e392	-0.09516062
194	0x3dc94812	0.098281994
195	0xbe17a522	-0.14809087
196	0x3c50cc0c	0.012743961
197	0xbd81a7bf	-0.06330823
198	0x3c9c2038	0.019058332
199	0xbbf54cb8	-0.007485952
200	0xbe0edd06	-0.13951501
201	0xbe4e132f	-0.20124505
202	0xbdd822c7	-0.10553508
203	0xbd4bfcda	-0.049801685
204	0x3d3e7f1c	0.04650794
205	0x3d9f6af4	0.077840716
206	0x3c34ccd3	0.011035162
207	0x3d0ed835	0.03487416
208	0xbda232ad	-0.07919822
209	0xbde3c329	-0.11121208
210	0x3a8a125e	0.0010534038
211	0xbdcb4375	-0.09924976
212	0xbdf0fbe7	-0.117667966
213	0x3dbe2086	0.09283547
214	0xbd30c23f	-0.043153998
215	0xbd2d8c06	-0.042369865
216	0xbd01c7b8	-0.031684607
217	0xbe37fcc9	-0.17967524
218	0xbddf6c82	-0.10909368
219	0xbcf007b5	-0.02930055
220	0xbde55540	-0.11197901
221	0x3e12fd85	0.14354523
222	0xbcb73874	-0.022365786
223	0x3d9c503d	0.07632492
224	0xbe2de4c9	-0.16981806
225	0xbda6f44e	-0.08152066
226	0xbd18a1ad	-0.03726356
227	0x3db47bc0	0.08812666
228	0x3e0a4492	0.1350272
229	0x3d877c9d	0.06615565
230	0xbe47b08d	-0.19500943
231	0x3dc433b0	0.09580171
232	0x3e26d498	0.16292036
233	0x3bd7a98c	0.006581491
234	0xbe00e746	-0.12588224
235	0xbd935f10	-0.07195866
236	0xbd6df2ce	-0.058092885
237	0xbe47d9bf	-0.19516657
238	0xbdcc73d7	-0.09983032
239	0x3e1557af	0.1458423
240	0x3e1b985d	0.1519484
241	0xbce87c99	-0.028379725
242	0x3d0def06	0.03465178
243	0x3bab7c97	0.005233358
244	0xbe51d453	-0.20491152
245	0xbe130bcd	-0.1435997
246	0x3e2276ba	0.15865603
247	0x3deccf02	0.11562921
248	0xbbc29277	-0.00593787
249	0x3ca16f18	0.019706294
250	0xbbae0017	-0.0053100693
251	0xbe50a6d4	-0.2037614
252	0x3e01b53d	0.12666793
253	0x3e1b39cd	0.15158768
254	0xbe50ea59	-0.20401897
255	0xbe2ab762	-0.16671517

conv2.nn.0.bias f4 [32]
0	0x3df8c883	0.121476196
1	0x3bc0af00	0.0058802366
2	0xbdac65ec	-0.084178776
3	0x3e0eb6c0	0.13936901
4	0xbd2d514a	-0.04231385
5	0xbc903a8f	-0.017606048
6	0xbdf3c631	-0.119030364
7	0xbc9edd0c	-0.019392513
8	0x3e0d986b	0.13827674
9	0x3dce8994	0.10084835
10	0x3df6297f	0.120196335
11	0x3cea0f6d	0.028571809
12	0xbd055e21	-0.03256047
13	0x3df84d37	0.121241026
14	0xbc963636	-0.018336397
15	0xbdc1648e	-0.094430074
16	0xbd05d652	-0.032675095
17	0x3c93f4c5	0.018061051
18	0x3dc9edb5	0.09859792
19	0x3e35a72c	0.17739552
20	0xbd8826db	-0.06648036
21	0x3e001c63	0.12510829
22	0xbdb6f5fe	-0.08933638
23	0xbe0d3ca0	-0.13792658
24	0x3de1f1cc	0.11032447
25	0xbd4214b5	-0.04738303
26	0xbddb7502	-0.10715677
27	0x3d13a85a	0.036049224
28	0xbd0da256	-0.034578644
29	0xbcb35766	-0.02189226
30	0x3b753aff	0.0037419198
31	0xbd8502c1	-0.06494666

conv2.nn.2.weight f4 [32, 32]
0	0x3dd68115	0.10473839
1	0xbcf7f92c	-0.030270182
2	0xbd8cc034	-0.06872597
3	0x3dd48465	0.10376815
4	0xbdd24236	-0.10266535
5	0x3e150d5b	0.14555876
6	0x3d61fd11	0.055172984
7	0xbc9b7908	-0.01897861
8	0xbdf432b7	-0.119237356
9	0xbbf28103	-0.0074006333
10	0x3e4aa880	0.1979084
11	0x3dac7b90	0.08422005
12	0x3e092f4d	0.1339695
13	0xbe04a5eb	-0.12953918
14	0x3df5aca9	0.11995823
15	0xbdb93bd7	-0.09044617
16	0xbdd80262	-0.105473295
17	0x3d9f0dec	0.07766327
18	0xbce33299	-0.027734088
19	0x3e24ddf6	0.16100296
20	0x3e1f2fcc	0.15545577
21	0x3d78f05e	0.060776107
22	0x3e0c5403	0.13703923
23	0x3dd8415e	0.10559343
24	0x3d79f815	0.061027605
25	0xbe12a15c	-0.14319366
26	0xbda5dbe7	-0.08098584
27	0xbdc4b79e	-0.09605335
28	0xbe1da00b	-0.15393083
29	0x3e0ced29	0.13762344
30	0x3e3bc97d	0.1833858
31	0xbd72ac0c	-0.059246108
32	0xbb9693a9	-0.004595239
33	0xbe1f63a7	-0.15565358
34	0xbe0a2668	-0.13491213
35	0xbdf93332	-0.12167968
36	0x3db5d89e	0.08879207
37	0xbdca328a	-0.09872921
38	0x3de1fcd6	0.11034553
39	0x3ca3ec1a	0.020010043
40	0x3d9ff3b5	0.07810155
41	0x3d8db690	0.06919587
42	0xbdda22fb	-0.10651203
43	0xbd83d421	-0.06436945
44	0x3e50a60d	0.20375843
45	0xbd5eb771	-0.054374162
46	0xbd669609	-0.05629543
47	0xbd11aa70	-0.035562932
48	0x3dedfd09	0.11620528
49	0xbdb6dd01	-0.08928872
50	0x3dd09e5a	0.10186453
51	0x3df88a9b	0.12135812
52	0x3b5c961f	0.0033658815
53	0x3d8ad35b	0.06778594
54	0xbe19f5b9	-0.15035142
55	0x3e13c245	0.14429577
56	0x3e1de4b9	0.15419282
57	0xbd96ae86	-0.073575065
58	0x3e00dc01	0.12583925
59	0x3c1360f3	0.008995282
60	0xbe028377	-0.12745462
61	0x3d792d9d	0.060834516
62	0x3e1c9491	0.15291049
63	0x3e0348f2	0.12820795
64	0x3e1e0b46	0.15433988
65	0x3dcd2935	0.10017625
66	0xbe144c19	-0.14482154
67	0xbcc84e15	-0.024451295
68	0xbd59f7ad	-0.053214718
69	0x3cf9c309	0.030488508
70	0xbc7bea0d	-0.015375626
71	0x3db75697	0.089520626
72	0x3c221b95	0.009894271
73	0x3dc4da1c	0.096119136
74	0x3c5ffb99	0.013670825
75	0x3df4f1cf	0.11960184
76	0xbe080e53	-0.13286714
77	0x3de156a9	0.11002857
78	0x3dc70644	0.09717992
79	0xbd0853ea	-0.03328315
80	0xbd178038	-0.036987513
81	0xbdf56a86	-0.11983208
82	0xbde23f37	-0.110472135
83	0xbcd4fc22	-0.025999133
84	0x3aefe1c8	0.0018301541
85	0xbd40496d	-0.046945024
86	0xbb2bba2f	-0.0026203503
87	0xbd3b4d72	-0.045728154
88	0xbe0a8c77	-0.13530146
89	0xbe3f3686	-0.18673143
90	0xbd843732	-0.0645584
91	0xbe0c6d78	-0.13713634
92	0x3dba176d	0.09086499
93	0x3d24ab48	0.04020241
94	0xbce58df2	-0.028021786
95	0x3e1a7b98	0.1508621
96	0xbe276edc	-0.16350883
97	0xbd7ca48f	-0.061680373
98	0xbd61cd6d	-0.05512755
99	0x3e3171af	0.17328523
100	0xbd4b7176	-0.04966875
101	0xbd907a76	-0.070546076
102	0x3e1f71fd	0.15570827
103	0x3ce128fb	0.027485361
104	0xbdeea7f6	-0.1165313
105	0xbc774649	-0.015092441
106	0x3dd0b754	0.10191217
107	0xbdb15df6	-0.086605
108	0xbd845852	-0.06462158
109	0x3d920889	0.07130534
110	0xbcb22c58	-0.02174966
111	0xbcdf4434	-0.027254201
112	0xbd3b2eac	-0.045698807
113	0xbdf8c030	-0.12146032
114	0xbdbcbc76	-0.092156336
115	0xbd9352d7	-0.07193535
116	0xbde095db	-0.10966083
117	0x3db3f9a4	0.087878495
118	0x3d1cc23e	0.03827118
119	0xbce3ccd7	-0.027807636
120	0xbdb7049f	-0.08936428
121	0x3e6754d3	0.22590952
122	0x3e1dd2dc	0.15412468
123	0x3cf5b63e	0.029994126
124	0x3df7cde3	0.12099817
125	0x3ddbc2fd	0.107305504
126	0x3e021030	0.12701488
127	0xbdbf033c	-0.09326789
128	0x3db5d67c	0.088788
129	0xbd4532a0	-0.048143983
130	0x3dc60fc0	0.09670973
131	0x3d00240e	0.031284384
132	0x3b8bcf20	0.0042666346
133	0x3e1d0be9	0.15336575
134	0x3bb0db77	0.005397256
135	0x3d679604	0.05653955
136	0xbdfc9aab	-0.12334188
137	0x3dc2a93d	0.09504936
138	0x3dd207ce	0.10255395
139	0x3de2c14b	0.11072024
140	0x3deaa193	0.11456599
141	0xbc319d28	-0.010840692
142	0x3db52363	0.0884464
143	0xbdb5c138	-0.08874744
144	0x3c340db0	0.0109895915
145	0xbc83d8cd	-0.01609459
146	0x3e1ecd38	0.15507972
147	0x3e2bb955	0.16769917
148	0xbdb4ba2e	-0.088245735
149	0xbdb3f9bb	-0.08787867
150	0x3db36be3	0.08760812
151	0xbdea24c8	-0.11432797
152	0x3e401581	0.18758203
153	0x3dc357b5	0.09538213
154	0xbe251051	-0.16119505
155	0xbcdb9674	-0.02680514
156	0x3dc43082	0.09579565
157	0xbcdf5100	-0.027260303
158	0xbdeb434f	-0.114874475
159	0x3e3a6ca8	0.18205512
160	0xbd9261e1	-0.07147575
161	0xbdf14348	-0.11780411
162	0x3e29d193	0.16583852
163	0xbdf96c51	-0.12178863
164	0xbd34081c	-0.043953046
165	0x3da6d582	0.08146192
166	0xbb96ec09	-0.0046057743
167	0xbe315424	-0.17317253
168	0x3da18282	0.078862205
169	0x3dc16a25	0.094440736
170	0xbca69222	-0.020333353
171	0x3e4a7a02	0.19773105
172	0x3e133977	0.1437739
173	0x3da238da	0.07921
174	0xbdf26bb3	-0.11836948
175	0xbdbec34e	-0.09314595
176	0x3e1ba74f	0.15200542
177	0x3e0feabe	0.14054391
178	0xbd0c878b	-0.03430895
179	0x3e3031dc	0.1720652
180	0x3e17b6fa	0.14815894
181	0x3c8569bc	0.01628577
182	0x3e33cbe9	0.17558254
183	0xbd6bd5ee	-0.057577066
184	0x3da85f6b	0.082213245
185	0x3e2c3c88	0.16819966
186	0x3d027671	0.031851236
187	0x3b8ac61b	0.004235042
188	0xbda87e03	-0.0822716
189	0xbc988687	-0.018618835
190	0xbdeb4ff2	-0.11489858
191	0xbdec5404	-0.11539462
192	0xbe02b34e	-0.12763712
193	0xbb8ac223	-0.0042345687
194	0xbdccc823	-0.099991105
195	0xbd6838e9	-0.0566949
196	0xbdd10f03	-0.102079414
197	0xbdc20771	-0.094740756
198	0xbde99209	-0.11404807
199	0x3b91dc86	0.0044513373
200	0x3e2fbf44	0.17162806
201	0x3e472e90	0.19451356
202	0x3e3d06be	0.18459603
203	0xbd5a6513	-0.053319048
204	0xbe143ff2	-0.14477518
205	0xbd308db6	-0.043103896
206	0xbd04dd93	-0.032437872
207	0xbd4ce7ae	-0.050025634
208	0x3dc17c10	0.09447491
209	0x3e7cb940	0.24680042
210	0xbd5abbac	-0.053401634
211	0x3e249fb7	0.16076551
212	0xbe45c25d	-0.19312425
213	0xbdc8073a	-0.09767003
214	0x3e0a1297	0.13483654
215	0x3d96967d	0.07352922
216	0x3de88037	0.1135258
217	0xbdb6ce07	-0.08926015
218	0xbd700656	-0.058599792
219	0xbc673999	-0.014112853
220	0x3e22b5f4	0.15889722
221	0xbe2116af	-0.1573131
222	0x3d8a3aa0	0.06749463
223	0x3debb0a0	0.11508298
224	0x3de83520	0.11338258
225	0x3cc3eafc	0.02391576
226	0x3c934028	0.017974928
227	0x3cc2426f	0.023713319
228	0x3c0d39ad	0.008619708
229	0xbdd195a6	-0.10233621
230	0x3daead43	0.08529141
231	0xbe3fd728	-0.1873442
232	0xbdcfa7db	-0.10139438
233	0x3e218a17	0.15775333
234	0xbe0873f3	-0.13325481
235	0xbd11d66e	-0.035604887
236	0xbbd6b434	-0.0065522436
237	0x3e13ff91	0.1445296
238	0x3e28a4a0	0.1646905
239	0x3da801d0	0.08203471
240	0x3de8e85e	0.113724455
241	0xbcea27d1	-0.028583439
242	0x3e23d5c7	0.15999518
243	0xbc47ef3a	-0.012203032
244	0x3da320d1	0.079652436
245	0xbda85e8d	-0.08221159
246	0xbcd60b24	-0.02612836
247	0xbdecf2a1	-0.11569715
248	0x3e31e46e	0.17372295
249	0xbdee4281	-0.11633778
250	0xbe19a7ee	-0.15005466
251	0x3e0510d4	0.129947
252	0xbadb4000	-0.0016727448
253	0x3e09fb5d	0.13474794
254	0xbcb948a2	-0.022617642
255	0x3e18cc0c	0.14921588

conv2.nn.2.bias f4 [32]
0	0x3ae758c5	0.0017650357
1	0x3ae1895e	0.0017207076
2	0xb810cdb1	-3.452384e-05
3	0xb7299a6c	-1.0109139e-05
4	0x37cb5da6	2.4243094e-05
5	0x37cfb747	2.4761668e-05
6	0xbbb97b4e	-0.005660451
7	0x3b8dd4d8	0.0043283515
8	0x3a48eb5e	0.0007664467
9	0x37a6e9ca	1.9897609e-05
10	0x3bb1ca30	0.005425714
11	0x379548e7	1.7796132e-05
12	0x3a950c05	0.001137138
13	0xba758c69	-0.0009366931
14	0x371780ab	9.030259e-06
15	0x37fa0e19	2.9808887e-05
16	0x3b1a63c9	0.0023558012
17	0x37ae1106	2.0750344e-05
18	0xbb0c1216	-0.0021373085
19	0xb89a7346	-7.3647636e-05
20	0x38e8d1e0	0.00011101714
21	0x34bea406	3.55096e-07
22	0x38d19c2f	9.994988e-05
23	0xb629f630	-2.5326262e-06
24	0x3a18fa81	0.0005835668
25	0xb79782b7	-1.8061472e-05
26	0x383ea6ca	4.5454864e-05
27	0x384a5543	4.823996e-05
28	0xb8d3ec5b	-0.00010105289
29	0xb688f26f	-4.081339e-06
30	0xb80ebc7c	-3.4030978e-05
31	0xb87523c7	-5.8445872e-05

conv3.nn.0.weight f4 [32, 32]
0	0xbd73ef76	-0.05955454
1	0xbdab52e9	-0.08365423
2	0x3e1eacb5	0.1549557
3	0x3cd423ad	0.025895918
4	0x3e00bdc7	0.12572394
5	0x3dcb32c4	0.09921792
6	0x3e2ecb44	0.17069727
7	0x3d2a52bc	0.041582808
8	0x3c89d09d	0.016823107
9	0xbddd19fe	-0.10795973
10	0xbd149b59	-0.036280964
11	0x3deb77f0	0.11497486
12	0xbd093b7f	-0.033504006
13	0x3e30abce	0.17253038
14	0x3de83101	0.11337472
15	0x3e035913	0.12826948
16	0x3a7822d6	0.000946564
17	0xbdb3ddcd	-0.087825395
18	0xbcd97e04	-0.026549347
19	0x3e2fd59c	0.1717133
20	0x3d3f70dc	0.04673849
21	0xbdabd12a	-0.08389504
22	0x3dde2ada	0.10848017
23	0xbdff57d9	-0.124679275
24	0xbd20be30	-0.039243877
25	0xbe0f244d	-0.13978691
26	0x3d3b6ffc	0.045761093
27	0x3d97ec57	0.07418125
28	0x3d7c59b7	0.061608996
29	0x3d1a4670	0.03766483
30	0x3e2bbf48	0.16772187
31	0x3e003d3f	0.12523364
32	0x3d80640a	0.06269081
33	0x3dd02f6e	0.101652965
34	0xbdfabd94	-0.122431904
35	0xbe61ea03	-0.22061925
36	0x3dea9cd6	0.11455695
37	0xbb33770c	-0.002738419
38	0xbdd7baf7	-0.105337076
39	0xbc804a75	-0.015660504
40	0x3dd0ce2a	0.10195573
41	0x3e339358	0.17536676
42	0x3d48f078	0.049057454
43	0x3d3380ff	0.043824192
44	0xbe069006	-0.13140878
45	0xbd84206b	-0.06451496
46	0x3d8c9d9a	0.068659976
47	0xbcb7a769	-0.022418695
48	0x3d2a9c5d	0.041653026
49	0x3e3790f1	0.17926385
50	0x3d930bdc	0.07179996
51	0x3da950cd	0.08267365
52	0x3c7ab0ea	0.015300969
53	0x3e0e2948	0.13882935
54	0xbdcf4c64	-0.10121992
55	0x3da2f985	0.07957748
56	0x3e171661	0.1475463
57	0x3d2b4892	0.041817255
58	0xbe14f9c4	-0.14548403
59	0xbd139248	-0.036028177
60	0x3e4e8c3d	0.20170684
61	0x3ba90335	0.005157853
62	0x3e29bba5	0.16575487
63	0x3e31ef42	0.17376426
64	0x3da907c7	0.082534365
65	0x3cb7ba9c	0.02242785
66	0xbe211939	-0.15732278
67	0x3d4f2efd	0.05058192
68	0xbd682140	-0.056672335
69	0x3c4a2519	0.012337946
70	0x3da3b1f2	0.07992925
71	0x3c9ed1b7	0.01938711
72	0x3db1d0e2	0.08682419
73	0x3dbc1a14	0.091846615
74	0xbd04a204	-0.032381073
75	0xbe19c07a	-0.1501483
76	0xbd257407	-0.040393855
77	0x3e140969	0.14456715
78	0xbda1bc27	-0.07897215
79	0x3ce7fb35	0.028318027
80	0xbe09e36d	-0.13465662
81	0x3d49a2b1	0.04922742
82	0xbdca1f30	-0.0986923
83	0x3e126b52	0.14298752
84	0xbe3c9aa6	-0.18418369
85	0x3d8a4841	0.067520626
86	0xbdea87be	-0.11451672
87	0x3c5f12e8	0.013615347
88	0x3e05c22d	0.13062353
89	0x3d206288	0.039156467
90	0x3d83dcd2	0.064386025
91	0x3e1be6f6	0.15224823
92	0x3d22de7c	0.03976296
93	0x3cf4f2af	0.029900877
94	0x3d5bafc3	0.053634416
95	0xbe306ebf	-0.17229746
96	0x3e2687bb	0.16262715
97	0xbde2a0cb	-0.11065825
98	0xbd9d8226	-0.076908395
99	0xbd83992a	-0.06425698
100	0xbe2fef3e	-0.17181107
101	0x3dad589b	0.08464166
102	0xbdf42457	-0.11920994
103	0x3d4b9003	0.049697887
104	0x3c5fdb02	0.013663055
105	0x3d502bd8	0.050823063
106	0x3e10509a	0.14093247
107	0xbe153089	-0.14569296
108	0xbe27b8d3	-0.16379099
109	0x3db4d8f3	0.08830442
110	0xbcbd2093	-0.023086822
111	0xbe3c2a5d	-0.18375535
112	0x3df2ab78	0.11849111
113	0x3dc18971	0.09450043
114	0xbe10a56f	-0.14125608
115	0x3e00a555	0.12563069
116	0x3d888f4c	0.06667957
117	0x3d0f0f36	0.034926616
118	0x3cbfc40a	0.023408908
119	0x3c0ea171	0.008705483
120	0x3e22049e	0.15822074
121	0x3c187945	0.009306257
122	0x3d8a0874	0.067398936
123	0xbe40504a	-0.18780628
124	0x3cb6a392	0.022294793
125	0x3e08c098	0.13354719
126	0xbe1b8f90	-0.15191483
127	0xbda897a2	-0.08232047
128	0x3e2c5489	0.16829123
129	0x3dddd2c9	0.1083122
130	0xbd83b4fc	-0.064310044
131	0xbce998a9	-0.028515177
132	0x3deae675	0.114697374
133	0x3ce3e2bc	0.027818076
134	0x3debf3fd	0.115211464
135	0x3e438ded	0.19097109
136	0xbd341d65	-0.043973345
137	0x3e13a9eb	0.14420287
138	0xbe010d75	-0.1260279
139	0x3db91c35	0.09038583
140	0xbe22c16d	-0.15894099
141	0xbd0f6fd0	-0.035018742
142	0x3e19e1bb	0.15027516
143	0x3d432242	0.047640093
144	0x3d783758	0.060599655
145	0x3e0460a3	0.12927489
146	0x3e2c655c	0.1683554
147	0xbdb6dae4	-0.08928469
148	0xbdece2bd	-0.115666844
149	0xbd6d3a4f	-0.057916936
150	0xbc2d0516	-0.010560295
151	0xbd0e7d4d	-0.034787465
152	0x3dd836b3	0.10557308
153	0x3e15b1e5	0.14618643
154	0x3e0c9f56	0.13732657
155	0x3de981f2	0.11401738
156	0x3d79afb0	0.060958564
157	0xbdc6e07f	-0.09710788
158	0xbd1533e3	-0.036426436
159	0xbd24e969	-0.04026166
160	0x3e2210a5	0.15826662
161	0xbcc7f7b7	-0.024410112
162	0x3de6c1fa	0.11267467
163	0x3daded04	0.08492473
164	0xbd0f76c7	-0.035025384
165	0x3e0f92d2	0.14020851
166	0x3de38346	0.11109023
167	0x3d2b8ddc	0.041883335
168	0x3df0bf4e	0.117552385
169	0xbe3ab06d	-0.18231364
170	0x3de322d2	0.11090626
171	0x3e1aa93e	0.15103623
172	0xbb454a8d	-0.003010425
173	0xbdf7d3d4	-0.1210095
174	0xbdb67465	-0.08908919
175	0xbdf559f5	-0.119800486
176	0x3e0cfbbb	0.13767903
177	0x3dff1f0a	0.12457092
178	0x3d345fc4	0.04403664
179	0x3dd9aa75	0.10628215
180	0xbe0e1b22	-0.13877538
181	0x3df54e9a	0.11977883
182	0x3d9c512d	0.076326706
183	0xbc8632b2	-0.016381595
184	0xbe40d3a5	-0.18830736
185	0x3dc8f18a	0.09811695
186	0x3cdb5ab2	0.026776645
187	0xbce67ac2	-0.028134707
188	0xbe0bfe4f	-0.1367123
189	0x3cab5876	0.020916205
190	0x3dccaa5a	0.099934295
191	0xbcf5eea2	-0.030021016
192	0x3c6ee6f0	0.014581427
193	0x3da23828	0.07920867
194	0x3df72b80	0.12068844
195	0xbe402c0b	-0.18766801
196	0x3e0e1af4	0.1387747
197	0xbc16d03e	-0.009204922
198	0xbe288a2c	-0.16458958
199	0xbd50a47d	-0.05093812
200	0xbd64ee12	-0.055891104
201	0xbc9524f7	-0.018206103
202	0xbb6aac51	-0.0035808275
203	0xbd9254c3	-0.07145073
204	0xbe28cd95	-0.16484673
205	0x3e208f2e	0.15679619
206	0x3daf1cef	0.085504405
207	0x3d76bdc1	0.060239557
208	0x3d032d3c	0.03202556
209	0xbda35945	-0.07976011
210	0x3d03fcff	0.032223698
211	0x3e2e5e38	0.17028129
212	0x3d83a8b8	0.06428665
213	0xbc656884	-0.014001969
214	0xbdfa5ca6	-0.122247025
215	0x3caf54af	0.021402685
216	0x3e0ac345	0.13551052
217	0x3c6e0ce9	0.014529445
218	0x3d9c63fd	0.07636259
219	0x3e48f19b	0.19623415
220	0xbc80d33d	-0.015725726
221	0x3d86edb3	0.06588306
222	0xbdaedcca	-0.08538206
223	0xbe0502fa	-0.12989417
224	0xbe0e522f	-0.13898538
225	0xbe203877	-0.1564654
226	0xbe2eacc2	-0.1705809
227	0x3db8c7ac	0.090224594
228	0xbe02f173	-0.12787418
229	0x3d9a7032	0.07540931
230	0xbe212f36	-0.15740666
231	0x3e036343	0.12830834
232	0xbb81098d	-0.003937906
233	0x3d5fd58b	0.05464701
234	0x3e03b353	0.12861376
235	0x3d3b0e34	0.045667842
236	0xbb79c7fc	-0.0038113585
237	0xbdcab743	-0.09898236
238	0xbd782738	-0.060584277
239	0xbddd9680	-0.10819721
240	0x3d7b2e61	0.061323527
241	0x3e007e42	0.12548164
242	0x3db65778	0.08903402
243	0xbdf4b816	-0.11949174
244	0x3d65c25c	0.05609356
245	0x3dce537c	0.10074517
246	0xbdb4366d	-0.087994434
247	0x3e006adf	0.12540768
248	0xbe0f683a	-0.14004603
249	0x3d925e2b	0.07146867
250	0x3dab41c0	0.0836215
251	0xbdba61a9	-0.091006584
252	0x3e0f0c01	0.13969423
253	0xbc853922	-0.016262595
254	0x3e156d99	0.1459259
255	0x3d55fa43	0.05224062

conv3.nn.0.bias f4 [32]
0	0xbdbd4ab4	-0.09242764
1	0xbdfba5b0	-0.12287462
2	0xbe509d75	-0.20372565
3	0xbe2800f3	-0.16406612
4	0xbe175cef	-0.14781545
5	0xbdffcc6a	-0.12490161
6	0xbe18353c	-0.14864057
7	0xbc5ab974	-0.0133498795
8	0x3ad4e8be	0.0016243679
9	0x3e00657b	0.12538712
10	0xbe2caac7	-0.16862021
11	0xbd7ee963	-0.062234294
12	0xbe2d7286	-0.16938218
13	0xbd9eaaa1	-0.07747389
14	0xbc521f6a	-0.0128248725
15	0xbe0f6323	-0.14002661
16	0x3d7b59cc	0.061364934
17	0xbda2dabc	-0.079518765
18	0xbdbd4968	-0.09242517
19	0xbdb0c239	-0.08630795
20	0x3d9b8a0d	0.075946905
21	0x3d9bd437	0.07608836
22	0xbd2aa1a8	-0.041658074
23	0xbcbe75e9	-0.023249583
24	0xbe56912c	-0.20953816
25	0x3d8536b6	0.06504576
26	0x3e0f2d8a	0.13982216
27	0x3cce6d59	0.025198625
28	0xbe37e824	-0.17959648
29	0x3d5e4c9e	0.054272287
30	0xbd902632	-0.07038535
31	0xbd9bebeb	-0.07613357

conv3.nn.2.weight f4 [32, 32]
0	0x3df5176a	0.119673565
1	0x3df6492b	0.120256744
2	0xbd826774	-0.06367388
3	0x3caea7a8	0.02132018
4	0xbdab7891	-0.083726056
5	0xbe0e2ea9	-0.13884987
6	0xbdd8ae74	-0.10580149
7	0x3deb7e64	0.114987165
8	0x3cefb050	0.029258877
9	0xbccf8174	-0.025330283
10	0x3dad7551	0.08469642
11	0xbdc51fac	-0.096251816
12	0xbd4d185f	-0.05007207
13	0xbe103a78	-0.14084804
14	0x3d8ff5d3	0.07029309
15	0x3d86993a	0.065721944
16	0xbd740a9b	-0.059580427
17	0x3e1f67f9	0.15567006
18	0xbd3490e0	-0.044083476
19	0x3d2c3b28	0.042048603
20	0xbdc1da1b	-0.094654284
21	0xbd0a2ba4	-0.033733025
22	0x3c380451	0.011231498
23	0x3d762247	0.060091283
24	0xbe339d09	-0.17540373
25	0x3e0cc0af	0.13745378
26	0xbdb9acb6	-0.09066145
27	0xbe0658af	-0.13119768
28	0xbcaea606	-0.0213194
29	0x3b666015	0.0035152484
30	0xbe38c005	-0.18042
31	0x3ceafc3a	0.028684724
32	0xbcba69e1	-0.022755565
33	0x3d2260d9	0.039643142
34	0x38c2dde5	9.291972e-05
35	0xbc9fe59d	-0.019518668
36	0x3d412aa3	0.047159802
37	0x3e1a461f	0.15065812
38	0x3df9a50c	0.12189683
39	0x3cc0e216	0.023545306
40	0xbd8b83ab	-0.06812223
41	0x3dea0fb2	0.11428775
42	0xbc5a97af	-0.013341828
43	0x3df9d172	0.12198152
44	0x3dcd3824	0.100204736
45	0xbdc18ba3	-0.09450462
46	0xbcd216f5	-0.025645712
47	0x3dbe88bb	0.09303423
48	0x3e3f304b	0.18670766
49	0x3d6b165b	0.057394367
50	0x3dda12b2	0.10648097
51	0xbccd1d80	-0.02503848
52	0xbe183629	-0.1486441
53	0x3d5325b0	0.051549613
54	0x3db7d060	0.08975291
55	0x3d428c53	0.047497105
56	0xbab58cb3	-0.0013851136
57	0x3d3c40fb	0.045960408
58	0xbc8c1166	-0.01709814
59	0xbd069699	-0.032858465
60	0xbe29ad3a	-0.16569987
61	0x3c9a9d05	0.0188737
62	0x3e5d4034	0.21606523
63	0x3d311741	0.043235067
64	0x3de4a57d	0.11164377
65	0x3d141cf0	0.03616041
66	0x3bd65364	0.0065407027
67	0x3dfe0e25	0.124050416
68	0xbc5e5225	-0.0135693895
69	0x3bf5948d	0.0074945153
70	0xbda14f22	-0.078764215
71	0xbe1acba2	-0.15116742
72	0x3e0a5b51	0.13511397
73	0x3caaf9eb	0.020871123
74	0xbdf1f0b3	-0.11813488
75	0x3e24a66d	0.16079111
76	0x3cbaeecd	0.022818947
77	0x3c6c691a	0.014429355
78	0x3c463595	0.012097736
79	0xbd60f664	-0.054922476
80	0xbda9ea1f	-0.08296608
81	0x3d082a23	0.03324331
82	0x3c5c4422	0.0134439785
83	0x3e2cd656	0.16878638
84	0xbcb655c4	-0.022257693
85	0xbc9b2767	-0.018939687
86	0x3ca4aaa8	0.020100906
87	0xbd2d77d7	-0.042350616
88	0x3dec263d	0.11530731
89	0xbdd1b908	-0.1024037
90	0xbd88b24e	-0.06674634
91	0x3af92c95	0.0019010479
92	0x3e2afba6	0.16697559
93	0x3cb90343	0.022584563
94	0xbd471f61	-0.04861391
95	0x3dc438ae	0.09581123
96	0x3d528373	0.05139489
97	0x3d421ea2	0.047392495
98	0x3e353199	0.17694701
99	0x3dbfc433	0.09363594
100	0xbd0f15c6	-0.034932874
101	0x3deb96e2	0.11503388
102	0x3e39531b	0.18098108
103	0x3d4f7691	0.050650183
104	0xbe2eaf75	-0.17059119
105	0xbc1aa54a	-0.009438822
106	0xbdbd4e48	-0.092434466
107	0xbd52801e	-0.051391713
108	0xbe0c0322	-0.1367307
109	0x3d31d8e1	0.043419722
110	0xbdd47cf3	-0.10375395
111	0x3d6dda00	0.05806923
112	0xbd84e624	-0.06489208
113	0x3e0a7b3e	0.13523576
114	0xbddfc2ae	-0.10925804
115	0x3e382cf0	0.17985892
116	0x3e2a6d51	0.16643263
117	0xbda8ad32	-0.082361594
118	0x3e59c077	0.21264826
119	0xbe1ed13e	-0.15509507
120	0x3d7b538c	0.061358973
121	0xbdb1f571	-0.08689392
122	0x3e2f439a	0.17115632
123	0x3cfe2e4b	0.031027934
124	0xbdf412ee	-0.11917673
125	0x3d938d44	0.07204679
126	0xbd66bf0a	-0.056334533
127	0xbdae9de6	-0.085262105
128	0x3dff805f	0.12475657
129	0x3e2551f3	0.16144542
130	0x3e3a942b	0.18220584
131	0x3d54274c	0.05179529
132	0x3e44d714	0.19222671
133	0x3db3445a	0.087532714
134	0x3e55626b	0.20838325
135	0x3dcd7a97	0.10033148
136	0x3a715cea	0.00092072657
137	0x3ddf2fb9	0.10897774
138	0x3da4acd4	0.08040777
139	0x3de06608	0.10956961
140	0x3a2d9871	0.0006622142
141	0xbde339a4	-0.110949785
142	0x3e2fc6cd	0.1716568
143	0xbe0e98d9	-0.13925494
144	0xbddbe526	-0.10737066
145	0xbc82f666	-0.015986633
146	0xbd1b41b5	-0.03790446
147	0x3e1d07ce	0.15335009
148	0x3d1430ed	0.03617947
149	0xbdfcc55f	-0.12342333
150	0x3e3df1bb	0.18549244
151	0x3db1dda2	0.08684851
152	0xbe2bbc7b	-0.16771118
153	0x3e261567	0.16219102
154	0xbe1ea970	-0.15494323
155	0xbd07a2f3	-0.033114385
156	0x3e3f48f4	0.18680173
157	0x3dc11443	0.09427693
158	0x3e0c0b9c	0.13676304
159	0xbd1095db	-0.035299163
160	0xbe101031	-0.14068677
161	0xbd326b42	-0.04355932
162	0x3dce55e1	0.10074974
163	0x3dee5576	0.11637394
164	0x3db4c052	0.08825745
165	0xbd64981d	-0.05580913
166	0x3e0937ae	0.13400146
167	0x3df9fa5b	0.12205955
168	0xbe1d70c8	-0.15375054
169	0xbd833292	-0.0640613
170	0xbe0343ec	-0.12818879
171	0xbe1c65fd	-0.1527328
172	0x3dc5e26f	0.096623294
173	0x3e1261bb	0.14295094
174	0xbc530394	-0.012879271
175	0xbc93f4f9	-0.018061148
176	0x3c238c53	0.009982186
177	0xbe16c01e	-0.14721724
178	0x3e145d3b	0.1448869
179	0x3c176149	0.009239503
180	0x3e00b5e6	0.12569389
181	0x3e148962	0.14505532
182	0x3e0d3c9d	0.13792653
183	0x3d940f25	0.07229451
184	0xbd2bd5c4	-0.04195191
185	0xbd93eefc	-0.07223317
186	0x3e394dcb	0.18096082
187	0xbce09cbd	-0.027418489
188	0x3e448a57	0.19193397
189	0xbdf2c71d	-0.11854384
190	0xbe1759f0	-0.14780402
191	0x3e3db308	0.18525326
192	0x3db31fb5	0.08746282
193	0xbe44da69	-0.19223942
194	0x3d8a083c	0.06739852
195	0xbdce37d6	-0.100692436
196	0xbbcba574	-0.006214792
197	0x3cced658	0.025248691
198	0xbda38d66	-0.07985954
199	0x3cf0e524	0.029406138
200	0xbd088154	-0.033326462
201	0x3d902a9e	0.070393786
202	0xbdec5be8	-0.11540967
203	0x3e38bfc3	0.18041901
204	0xbd94772b	-0.07249292
205	0x3e23d34e	0.15998575
206	0x3e10ca69	0.14139713
207	0x3d49b776	0.049247228
208	0x3d39d515	0.045369226
209	0xbe2fd85d	-0.1717238
210	0xbd1c4535	-0.03815194
211	0x3dad725b	0.08469077
212	0xbd97a949	-0.074053355
213	0xbd19a119	-0.03750715
214	0xbd71171f	-0.05885994
215	0xbd9e462d	-0.07728229
216	0xbd25aab5	-0.040446002
217	0x3d92f6b8	0.07175964
218	0x3da0f3d5	0.07859007
219	0xbdd4792a	-0.10374673
220	0xbdc8cc57	-0.098046
221	0xbe28d081	-0.16485788
222	0xbe3479bc	-0.17624563
223	0xbd3a5004	-0.045486465
224	0xbd18e62a	-0.037328877
225	0x3d55c50d	0.052189875
226	0xbd9bd3a9	-0.0760873
227	0x3daf867c	0.08570573
228	0xbd641314	-0.055682257
229	0x3d96900d	0.07351694
230	0x3e121fd1	0.1426995
231	0x3e18c50f	0.14918922
232	0x3e431006	0.19049081
233	0x3ca1e4cf	0.019762425
234	0xbc82fb8e	-0.015989091
235	0x3db00342	0.085943714
236	0xbe2cb39f	-0.16865395
237	0x3e236c26	0.15959224
238	0xbdd45036	-0.103668615
239	0xbe59c799	-0.21267547
240	0x3d6e1d55	0.058133442
241	0xbe1e7dcd	-0.15477677
242	0x3a669a8b	0.00087968324
243	0xbd691ba5	-0.05691113
244	0xbd29d065	-0.041458506
245	0xbc341378	-0.01099097
246	0x3dc6242a	0.096748665
247	0xbe66bfd3	-0.22534113
248	0xbd8779ed	-0.06615052
249	0x3d8f8ed8	0.07009667
250	0x3e24f928	0.1611067
251	0x3e074d86	0.13213167
252	0xbe173c69	-0.14769138
253	0xbd9ee4c5	-0.07758478
254	0xbd491472	-0.049091764
255	0xbd418a7a	-0.047251202

conv3.nn.2.bias f4 [32]
0	0xbdc2d391	-0.09513009
1	0xbdba10a2	-0.09085204
2	0xbc8b1198	-0.016976163
3	0xbe03985e	-0.12851092
4	0xbdb260f2	-0.08709897
5	0xbe39f45f	-0.18159626
6	0xbd541827	-0.051780846
7	0x3e4ff125	0.20306833
8	0x3bffbb2d	0.0078042955
9	0x3df6601d	0.12030051
10	0xbdffffda	-0.12499972
11	0x3cf73d6c	0.030180655
12	0xbe05862b	-0.13039462
13	0x3d92cbc3	0.07167771
14	0x3e112c28	0.14177
15	0xbdeb2d8e	-0.11483298
16	0x3dc9a3cc	0.09845695
17	0xbd3ed91b	-0.046593767
18	0xbe04c61a	-0.12966195
19	0x3dc8a666	0.09797363
20	0xbdb1c880	-0.086808205
21	0xbd949c22	-0.072563425
22	0xbe200f35	-0.15630801
23	0x3d904412	0.070442334
24	0xbd61e87d	-0.05515336
25	0xbe025d66	-0.12730941
26	0xbdbce7a2	-0.09223868
27	0xbd249ff3	-0.040191602
28	0x3cb1a892	0.021686826
29	0x3dbd4788	0.09242159
30	0x3dc2b5a9	0.09507305
31	0x3e0491c6	0.12946233
